data.pth (torch, 5034 bytes, 6 tensors)

l1.weight f4 [8, 42]
-0.15490325 -0.02829133 0.7409752 0.069915704 0.23670931 -0.03006661 0.4473465 -0.36590627
0.18279362 -0.36591625 0.09828687 0.6335764 -0.062859304 0.1277472 -0.033266146 -0.11721496
0.002160474 -0.14124525 0.24148129 0.014370859 0.41417316 0.124612466 0.090021044 0.068687215
-0.28332642 0.8196331 0.029295772 0.7941443 -0.30429372 0.6677591 -0.0985794 0.4737316
-0.501877 0.5113196 -0.36581495 -0.2601285 -0.3658082 -0.093706146 0.72637403 -0.11804006
0.23645441 -0.10333356 0.38159055 0.066071615 0.35993695 -0.027804703 -0.3185226 0.45317325
0.3285323 -0.46437857 0.10437207 -0.4647515 0.063925356 0.54496056 -0.37556347 0.23308556
-0.33110222 0.32073876 -0.37103304 -0.3947865 -0.26935375 0.6937588 0.28143713 -0.32367736
0.76877517 0.5907542 0.84497154 0.15613262 7.705303e-05 -0.10483993 0.19779935 -0.20858106
0.4414335 0.40270683 0.7712044 -0.20289275 -0.46396142 0.40164638 0.77314353 0.31748345
0.33456582 0.67168707 0.29101864 0.27847603 0.7188233 0.6264159 0.4198395 -0.15403295
0.42645293 0.4529179 0.52725065 0.26217452 0.42664874 0.2087882 0.36785516 0.55887586
-0.58683205 0.20845748 -0.6351518 0.5015488 -0.6513884 -0.6718852 -0.19526291 0.75201666
0.07642459 -0.442827 0.55554825 0.134603 1.1298993 -0.00063833577 0.54203373 -0.42003745
0.8378448 -0.3161608 0.57444584 0.2817103 0.719227 0.35834408 0.22590293 0.13481013
1.187717 0.79518336 0.30675268 0.54054725 0.18599701 0.6203281 -0.28790992 -0.10253395
0.39020577 0.3108207 0.31895947 0.05371759 0.33075163 -0.5256134 0.45360294 -0.55851847
0.07908907 0.6731834 0.69953316 0.11405146 0.6999233 -0.20442808 0.5561256 0.75203264
0.3970177 0.00012819469 0.22647613 0.3629263 0.022310609 0.0080177635 -0.4412992 0.77050686
-0.1465189 0.6913172 -0.43328047 0.8003237 -0.114967756 0.2116219 -0.25761116 0.25589797
-0.54575586 -0.26790833 -0.58929753 -0.09689015 0.42538646 0.073720515 0.13100852 -0.081222065
0.69214165 0.563221 -0.22188434 0.29428393 0.6135109 -0.3143272 -0.45034227 -0.17103362
-0.034566708 -0.12029894 0.17715798 -0.25023812 0.5848782 0.16655876 0.77608657 0.66540027
0.67485285 0.58308554 -0.11738444 -0.55836064 0.12409877 0.47623128 -0.30717427 0.35104036
-0.0614712 -0.0039586187 0.42441136 0.029111633 0.1641704 0.029688232 -0.43611532 -0.22738126
-0.07269743 0.1830532 -0.32459393 0.6789908 0.82270664 0.5112339 -0.4598204 -0.4127265
0.12913258 0.633511 0.20768136 0.33596936 -0.34589455 0.48709017 0.13662708 -0.4329367
-0.04649405 -0.6037854 -0.4287295 -0.64173514 0.04569883 -0.31548375 0.61548793 0.1387877
0.89775366 0.19323084 0.7097121 0.5872871 -0.28407288 -0.7218063 0.37226358 0.62555957
-0.3788006 0.56904185 0.029254109 -0.2896145 0.19938351 -0.28048527 -0.25933564 -0.3219403
-0.32523987 -0.04344084 0.025272954 -0.1271061 -0.46775484 1.0140954 0.54332805 0.3413046
-0.3071091 -0.2868245 0.19258247 0.25213167 -0.175568 -0.12857372 0.6470999 0.3102092
00000000: f59e 1ebe 38c3 e7bc 8db0 3d3f f72f 8f3d
00000010: ed63 723e 404e f6bc 9a0a e53e 1158 bbbe
00000020: 402e 3b3e 6059 bbbe a04a c93d 1032 223f
00000030: 61bc 80bd 29d0 023e 1542 08bd 660e f0bd
00000040: bd96 0d3b 98a2 10be df46 773e c073 6b3c
00000050: 810e d43e d234 ff3d f45c b83d e2ab 8c3d
00000060: 2910 91be 7ad3 513f b0fd ef3c 0a4d 4b3f
00000070: 63cc 9bbe 43f2 2a3f ffe3 c9bd f38c f23e
00000080: 037b 00bf d7e5 023f 194c bbbe 902f 85be
00000090: 364b bbbe 02e9 bfbd a6f3 393f fdbe f1bd
000000a0: 1b21 723e 8ca0 d3bd d65f c33e 8e50 873d
000000b0: a849 b83e b0c6 e3bc 6515 a3be 5306 e83e
000000c0: 6335 a83e 07c3 edbe 06c1 d53d e9f3 edbe
000000d0: 4ceb 823d 8982 0b3f db49 c0be fbad 6e3e
000000e0: 3b86 a9be df37 a43e 0bf8 bdbe 7521 cabe
000000f0: bce8 89be 2d9a 313f 8718 903e 0ab9 a5be
00000100: 73ce 443f ab3b 173f 0e50 583f 3be1 1f3e
00000110: 8897 a138 51b6 d6bd ea8b 4a3e 4696 55be
00000120: 9203 e23e 972f ce3e a76d 453f 1ec3 4fbe
00000130: 5a8c edbe 98a4 cd3e bcec 453f 318d a23e
00000140: 364c ab3e aff3 2b3f 6500 953e 6994 8e3e
00000150: ce04 383f cb5c 203f 34f5 d63e d0ba 1dbe
00000160: 0a58 da3e dbe4 e73e e6f9 063f bd3b 863e
00000170: b471 da3e 93cc 553e 8357 bc3e 7d12 0f3f
00000180: a03a 16bf e175 553e 4f99 22bf 8165 003f
00000190: 64c1 26bf ab00 2cbf 00f3 47be 2a84 403f
000001a0: 7f84 9c3d 38ba e2be 6938 0e3f 5ed5 093e
000001b0: 8aa0 903f fd55 27ba b9c2 0a3f 260f d7be
000001c0: ff7c 563f d4df a1be e20e 133f 553c 903e
000001d0: 431f 383f e078 b73e 1953 673e ab0b 0a3e
000001e0: 1c07 983f 2391 4b3f b00e 9d3e 4e61 0a3f
000001f0: 0076 3e3e d3cd 1e3f ee68 93be 52fd d1bd
00000200: 0dc9 c73e e423 9f3e a84e a33e fa06 5c3d
00000210: 4758 a93e 9a8e 06bf a53e e83e 11fb 0ebf
00000220: 73f9 a13d bf55 2c3f 9b14 333f d093 e93d
00000230: 2c2e 333f 9855 51be 3f5e 0e3f 3685 403f
00000240: e745 cb3e 006c 0639 5ce9 673e 7ad1 b93e
00000250: bdc4 b63c f05c 033c f8f1 e1be f03f 453f
00000260: 0d09 16be 2afa 303f f0d6 ddbe 04e2 4c3f
00000270: 3774 ebbd 69b3 583e 9ce5 83be 0f05 833e
00000280: a8b6 0bbf 482b 89be 34dc 16bf 586e c6bd
00000290: 41cc d93e c8fa 963d 1927 063e c157 a6bd
000002a0: 3230 313f 402f 103f a635 63be 62ac 963e
000002b0: 0d0f 1d3f 7fef a0be 4393 e6be 7023 2fbe
000002c0: d295 0dbd 4a5f f6bd e768 353e 361f 80be
000002d0: 94ba 153f 618e 2a3e 9cad 463f ac57 2a3f
000002e0: 28c3 2c3f 1845 153f 4167 f0bd b9f0 0ebf
000002f0: 7f27 fe3d 96d4 f33e f245 9dbe 90bb b33e
00000300: 3ac9 7bbd 4db7 81bb 724c d93e 857b ee3c
00000310: 491c 283e bc34 f33c 824a dfbe a2d6 68be
00000320: 64e2 94bd 4c72 3b3e 2d31 a6be 57d2 2d3f
00000330: e79c 523f 3ae0 023f 946d ebbe e350 d3be
00000340: 553b 043e c72d 223f 6caa 543e 2d04 ac3e
00000350: 1719 b1be e263 f93e f8e7 0b3e e1a9 ddbe
00000360: 8c70 3ebd ae91 1abf 6f82 dbbe c148 24bf
00000370: b22e 3b3d 1687 a1be 9e90 1d3f 5d1e 0e3e
00000380: 2fd3 653f 4ede 453e b1af 353f 7358 163f
00000390: 0072 91be 4cc8 38bf 5599 be3e ac24 203f
000003a0: 27f2 c1be baac 113f 50a6 ef3c 5a48 94be
000003b0: 312b 4c3e c49b 8fbe a4c7 84be 5cd5 a4be
000003c0: d785 a6be 06ef 31bd 3a09 cf3c 1a28 02be
000003d0: 907d efbe e1cd 813f 8c17 0b3f 7abf ae3e
000003e0: 673d 9dbe a9da 92be 5734 453e 6717 813e
000003f0: 19c8 33be d4a8 03be 57a8 253f bed3 9e3e

l1.bias f4 [8]
0.36572182 0.46411896 0.6720469 0.58927864 0.93191546 0.6672234 0.6732565 1.2887176
00000000: e43f bb3e 00a1 ed3e 440b 2c3f f7da 163f
00000010: 0392 6e3f 27cf 2a3f 8a5a 2c3f b3f4 a43f

l2.weight f4 [8, 8]
0.58303297 -0.07915187 0.6724614 0.32930377 -0.6760141 -1.2580454 0.70634747 1.4201174
1.097863 -0.24404566 -0.9339678 1.2308241 0.6656061 0.77744704 1.4840974 0.17943476
0.28224665 1.3896291 1.5158694 -0.23732103 0.3330014 0.2744965 1.1475971 -0.88099337
-0.25745535 -0.32528293 0.23126881 0.3518316 1.1456293 0.3045382 -0.9188932 1.3532867
0.2692105 0.08120051 -0.09441692 -0.135429 -0.21059646 -0.080079764 -0.12598579 -0.15025187
-1.1537199 -0.46414933 -0.008881884 -0.47152233 1.4394199 1.4446002 0.24550727 1.0491693
0.14721079 -0.009920031 0.023310233 -0.26257902 -0.24640408 0.06677468 -0.038354278 -0.3000943
-0.22028674 -0.076123476 -0.120007634 -0.042363416 -0.07631575 0.20429409 -0.23773456 -0.010340756
00000000: a641 153f 601a a2bd 6e26 2c3f 819a a83e
00000010: 430f 2dbf a207 a1bf 30d3 343f 68c6 b53f
00000020: c686 8c3f 1be7 79be 8418 6fbf a58b 9d3f
00000030: 2965 2a3f c506 473f e7f6 bd3f bfbd 373e
00000040: a282 903e 5edf b13f 0208 c23f 4904 73be
00000050: 297f aa3e ce8a 8c3e 76e4 923f c888 61bf
00000060: 30d1 83be 7c8b a6be bbd1 6c3e 4523 b43e
00000070: fba3 923f 6eec 9b3e 963c 6bbf 8038 ad3f
00000080: f5d5 893e 744c a63d a85d c1bd e6ad 0abe
00000090: 99a6 57be dc00 a4bd 6b02 01be a0db 19be
000000a0: 18ad 93bf fba4 edbe 5285 11bc 606b f1be
000000b0: e93e b83f a9e8 b83f 4266 7b3e 2e4b 863f
000000c0: 6dbe 163e a087 22bc 1af5 be3c c270 86be
000000d0: 5a51 7cbe 2ac1 883d 6019 1dbd f6a5 99be
000000e0: d992 61be a0e6 9bbd 90c6 f5bd 4385 2dbd
000000f0: 6f4b 9cbd 7832 513e b070 73be 466c 29bc

l2.bias f4 [8]
0.42948553 -0.2121243 0.5415387 1.0291854 -0.22148721 0.7267546 -0.07554323 -0.15046722
00000000: 87e5 db3e 1d37 59be 48a2 0a3f 59bc 833f
00000010: 8bcd 62be 970c 3a3f 69b6 9abd 1414 1abe

l3.weight f4 [8, 8]
0.5810797 0.38771334 -0.033799253 -0.9715139 -0.30483842 -1.0031704 -0.19516887 -0.26438555
0.33182955 -1.3110149 -1.2128162 0.8634808 -0.23671722 0.44645646 0.3411948 -0.29855952
-1.0340958 0.6878403 -0.8552383 0.42224285 -0.10582517 0.6119964 -0.012188944 -0.22456327
0.15939587 0.78433925 -1.0247003 0.40420476 0.33854267 -1.1824923 -0.27766263 -0.24345478
0.42463845 -0.75843096 0.24035716 0.005018234 -0.01371184 0.010945503 0.25818774 0.21107773
-1.4953089 0.10595084 0.6370644 -1.2502347 -0.34231383 0.54300857 -0.24379407 0.09966903
-1.8154929 -1.518537 0.41602683 0.7551762 -0.26018348 0.5057439 0.20566936 0.035757706
0.0629429 -1.3473252 0.89786536 -1.2866677 -0.01528433 -1.0680416 0.13390304 -0.28450564
00000000: a4c1 143f 5d82 c63e 1671 0abd 23b5 78bf
00000010: c813 9cbe e367 80bf 59da 47be 8b5d 87be
00000020: 90e5 a93e 56cf a7bf 903d 9bbf 140d 5d3f
00000030: 0066 72be f195 e43e 16b1 ae3e cbdc 98be
00000040: 405d 84bf 4d16 303f e6f0 5abf 3730 d83e
00000050: deba d8bd ccab 1c3f 23b4 47bc eaf3 65be
00000060: ac38 233e 75ca 483f 6129 83bf edf3 ce3e
00000070: 7755 ad3e e85b 97bf cc29 8ebe 364c 79be
00000080: 366a d93e 8828 42bf 3020 763e ff6f a43b
00000090: a0a7 60bc c454 333c 2f31 843e c324 583e
000000a0: 4866 bfbf c1fc d83d a716 233f b107 a0bf
000000b0: c243 afbe 9c02 0b3f 27a5 79be 471f cc3d
000000c0: 1262 e8bf 6c5f c2bf 7801 d53e 3a53 413f
000000d0: c536 85be 6f78 013f fd9a 523e ac76 123d
000000e0: 35e8 803d 2775 acbf 81da 653f 87b1 a4bf
000000f0: 206b 7abc 96b5 88bf e11d 093e b9aa 91be

l3.bias f4 [8]
-0.057191517 0.15645546 -0.15091899 0.15405487 -0.1856477 -0.14896372 -0.16151485 0.12779178
00000000: a741 6abd dc35 203e 828a 1abe 8fc0 1d3e
00000010: 6e1a 3ebe f289 18be 2664 25be d9db 023e
